NaN Stop Us/Modelo_fnn/final_fnn_model.pth (torch, 214505 bytes, 19 tensors)

network.0.weight f4 [256, 33]
000000 8e 80 d7 3b 69 fc 7b 3d 78 63 07 be 3c a1 a5 bd
       0.006576604 0.061520014 -0.13221538 -0.08087394
000010 f3 c3 58 3d 9c 4f b6 3d 61 1f d2 bd c2 13 2c bd
       0.052921247 0.08901903 -0.10259891 -0.04201103
000020 b4 98 4f bd 20 e7 03 3e 95 8b c0 3c d7 67 99 bc
       -0.05068274 0.12881136 0.023504058 -0.018726273
000030 3e 42 44 3d 36 e9 e3 bc 1a f5 95 3d 57 ca 7e bd
       0.047914736 -0.027821165 0.0732214 -0.062204685
000040 ef 13 dd 3d 58 a2 d9 3d 7f 02 05 3e 1f 28 0a 3e
       0.10794818 0.10626668 0.12989233 0.13491867
000050 84 c8 09 3d 79 a5 5a 3d 78 ef c6 3d 91 6c 91 bd
       0.033638492 0.053380463 0.09713644 -0.071007855
000060 92 dc 8c bc 3b 8c 48 bc 77 12 f0 bd 53 9e bf bd
       -0.01719502 -0.012240465 -0.11722272 -0.0935637
000070 3a 08 f4 3d 27 ce da bd 30 91 35 3d 06 1f 5a 3d
       0.119156316 -0.10683852 0.044327915 0.053252243
000080 e5 5e 07 3e 03 27 fd bd dd d3 75 bd 03 40 cf 3c
       0.13219793 -0.123609565 -0.0600165 0.025299078
000090 06 0b 0a be b5 1c a7 3d bc 25 d6 bc 41 3d ea bd
       -0.13480768 0.08159772 -0.02614104 -0.114374645
0000a0 97 45 97 bd 85 07 5e bc 0f fc f8 bd 54 2c 8d 3d
       -0.0738632 -0.0135515975 -0.12157451 0.068932205
0000b0 91 ee 7d bd d9 9e fd 3c 60 1c 1e 3d c7 a7 71 3d
       -0.061995093 0.030959534 0.03860128 0.058997896
0000c0 2f d7 f6 bd 49 c7 d0 3c 99 e1 c4 bc ab f9 83 bd
       -0.12052762 0.025485652 -0.024033355 -0.06444105
0000d0 64 99 7c 3d 41 c8 a7 3d 19 2e ba bd 13 12 10 3e
       0.061669722 0.08192492 -0.09090824 0.14069395
0000e0 b5 33 0e 3c e1 88 f9 3c 68 88 c0 3d ce 38 f4 bb
       0.00867932 0.030460777 0.094010174 -0.0074530607
0000f0 b7 22 34 3d 88 bb fc bd c1 21 ed 3d b6 c7 2d bc
       0.04397842 -0.12340456 0.11578704 -0.010606697
000100 30 17 a8 bc 1d 83 9d 3b a8 42 95 3b 29 19 32 bd
       -0.02051887 0.0048068897 0.004555065 -0.043481026
000110 c8 70 08 3d c6 36 c4 3d 4a f1 a7 3d a3 a2 00 be
       0.03331068 0.0958076 0.08200319 -0.12562041
000120 cf 2a 19 be 08 2c 13 bd 23 d9 0e be a8 d8 b9 bd
       -0.14957736 -0.035930663 -0.13950019 -0.09074527
000130 d1 f0 ba bd 97 57 6c 3d c1 de 08 bd 78 fb f6 3c
       -0.09127963 0.05770072 -0.03341556 0.030149207
000140 c1 2d 67 bd 48 1b d1 3c 3d 01 98 3b a4 2c 3b 3d
       -0.05644012 0.025525704 0.0046388195 0.04569687
000150 04 e6 c0 3c 4d c9 57 bd 29 3b 03 3e bc 1c 80 3d
       0.02354718 -0.05268221 0.12815537 0.06255481
000160 18 43 46 3d 5a c7 92 bd 9d a2 b4 bd 04 1d 07 3d
       0.04840383 -0.071669295 -0.088200785 0.032986656
000170 85 24 04 3e ed bd 35 3d a7 b7 ae 3d d9 fb d5 3b
       0.12904556 0.04437058 0.08531123 0.0065302667
000180 7e a5 e7 3d fb 30 ca bd f0 39 0b 3e 5a 2a 09 3d
       0.11310862 -0.098726235 0.1359632 0.033487655
000190 ce a5 ba bd 88 f7 06 3e 81 c1 02 3d 9d 29 80 3d
       -0.09113656 0.13180363 0.03192282 0.06257937
0001a0 ae 71 f2 3d 8d a4 a5 bd d0 e2 a2 bd c1 42 f2 3d
       0.11838089 -0.08088026 -0.07953417 0.118291385
0001b0 81 29 66 bd 73 69 e0 bd c7 ea fd 3c c7 f1 d8 bd
       -0.056191925 -0.10957613 0.03099574 -0.1059299
0001c0 cb f5 e5 3d 2a 23 88 bd f5 ae af bd 4e c2 6e 3d
       0.11228522 -0.06647332 -0.08578292 0.058290772
0001d0 58 12 07 3e d0 29 c6 3c ec e2 e4 3d 52 a9 4c bc
       0.13190591 0.02418986 0.111760944 -0.012491541
0001e0 c4 67 c5 bd 73 65 55 3d a5 bf 11 bd f8 ef 03 bd
       -0.09638932 0.052098703 -0.035583157 -0.032211274
0001f0 f5 a4 10 be 6f 33 00 3c 94 62 9b bd 52 e5 92 bc
       -0.14125426 0.007824763 -0.07587162 -0.017931614
000200 81 c5 1b 3c 65 f5 d1 bd 1b a7 be 3d 0b 06 11 3e
       0.009507538 -0.102518834 0.093092166 0.14162461
000210 06 db 18 bd 61 82 e2 bd 26 5b 28 3d 0a 94 62 3c
       -0.037318252 -0.11060024 0.04110255 0.013829241
000220 3b 81 d6 bd 42 2b bf 3c d9 5b 9c 3d 34 c3 37 3d
       -0.104738675 0.023336057 0.07634706 0.044863895
000230 d9 04 0d 3d 79 5d 99 3d fc c6 bb 3d da 21 8f bc
       0.03442845 0.074885316 0.09168813 -0.017472196
000240 dc cf a4 3d ec 91 fa bd 91 2f a6 3d c7 57 15 3d
       0.080474585 -0.12234864 0.08114541 0.036460664
000250 2d d9 0a be c7 72 f1 3c 78 5b db bd 16 0d 12 3e
       -0.13559408 0.029473675 -0.10710806 0.14262804
000260 20 62 13 be 3d 16 54 bc f3 78 d3 3d b1 6c 49 bc
       -0.143929 -0.012944755 0.103258036 -0.01229398
000270 a4 ce 86 b8 3e 23 7b 3c 97 58 1b 3d 13 e5 8b 3d
       -6.428108e-05 0.015328227 0.037926283 0.06830802
000280 e0 80 94 bc 9e 3d 15 3e 35 df 6b 3d bf 95 d4 3d
       -0.018127859 0.14574286 0.057585914 0.10380124
000290 0c 0e d1 3c 92 cf 83 3b b3 6a 49 3d e1 5d 82 bc
       0.025519393 0.004022547 0.049174022 -0.015913906
0002a0 84 a3 aa 3c 6c 16 01 3e 89 c3 aa 3d 71 09 04 be
       0.020829923 0.1260621 0.083380766 -0.12894227
0002b0 b8 a4 89 3d 1d bd 31 3d c0 30 32 3d af e6 a5 bd
       0.06720871 0.043393243 0.043503523 -0.0810064
0002c0 a2 ae 95 3d c3 59 c0 bd eb 63 f1 bd a3 62 e1 bd
       0.07308699 -0.09392121 -0.11786636 -0.110051416
0002d0 e1 93 e8 bb ba a4 39 3c bb f4 62 3c ec 41 bb 3d
       -0.0070977067 0.011330778 0.013852294 0.09143433
0002e0 83 a2 00 3d 61 06 eb bd f4 20 c4 bc b8 e2 fe 3d
       0.031404983 -0.11475826 -0.023941495 0.12445587
0002f0 09 e3 10 3e 78 79 d8 bd 71 ef fd 3d 56 fe 64 bd
       0.14149107 -0.10570043 0.123991854 -0.055906616
000300 46 14 4f 3d fe 1f 74 3d bb ef f6 bb 59 49 8c bd
       0.050556444 0.059600823 -0.0075359023 -0.068499275
000310 0f 8c c9 bd 37 c1 db 3d b9 93 8a 3d 2f 14 c5 bd
       -0.09841167 0.10730212 0.06766457 -0.0962299
000320 20 7e 16 bd 8e 11 09 3e c8 ff ca bd da 68 d6 3d
       -0.036741376 0.13385603 -0.09912068 0.104692176
000330 b2 f4 e0 3c 01 b0 14 3e 73 da c6 bd 0e fe fe 3d
       0.02746043 0.14520265 -0.09709635 0.12450801
000340 09 4d c1 3c 34 4a 69 bd ee 79 a1 bb 0e 40 5b 3b
       0.023596304 -0.05695553 -0.004927865 0.0033454928
000350 72 51 58 3d e7 2c f1 bd d2 8f 2a bd 48 51 dc bd
       0.052812047 -0.117761426 -0.041641064 -0.10757691
000360 ee 74 08 3e 7d 4d e5 bd f6 3b d2 bd 79 98 f6 3d
       0.13325855 -0.1119642 -0.10265343 0.120408006
000370 24 5c f2 3d c6 74 9e bc c4 5f b8 bc 89 bc 9f bd
       0.11833981 -0.019342791 -0.022506602 -0.07799632
000380 c8 11 77 3b 88 f2 f5 3d 4c 3f 0b 3e 77 29 d6 3d
       0.0037699807 0.1200915 0.13598365 0.104571275
000390 a1 a0 91 bd 00 06 52 34 a3 fc a5 bd 63 1b 89 bd
       -0.07110716 1.9559957e-07 -0.08104827 -0.06694677
0003a0 cd 52 f0 3d b4 e3 a3 bd cd 3e 38 3c dc 6e 03 3e
       0.11734543 -0.08002415 0.011245442 0.12835258
0003b0 a7 4f 10 3e 08 48 d0 bd 44 4d 04 bd 1f be c8 bd
       0.14092885 -0.10169989 -0.03230025 -0.09801888
0003c0 98 de f0 bd 6d 73 fd 3d 89 5c 1e bc 1b dc 05 be
       -0.117612064 0.12375531 -0.009665617 -0.13072245
0003d0 2a ba d3 3d 99 86 b5 bd 8e e9 fb bd 8d 03 9e bd
       0.10338242 -0.08863563 -0.123004064 -0.07715521
0003e0 ae 19 d3 bc 76 aa b0 bb 96 b2 41 bc 4b c0 f5 bd
       -0.025769081 -0.0053914143 -0.011822363 -0.119995676
0003f0 fe 9c eb 3d 16 dc 45 bc 98 2d 48 3d e3 5a 78 3d
       0.11504553 -0.012076398 0.048871607 0.06063355

network.0.bias f4 [256]
000000 b9 cb 90 b9 66 44 fb 39 33 f8 aa 39 b3 55 b9 b8
       -0.00027617606 0.00047925411 0.0003260985 -8.83745e-05
000010 6f 08 0b ba bf ea de b9 1e 88 cd 37 f1 4b e1 b8
       -0.0005303686 -0.0004251804 2.4501289e-05 -0.00010742981
000020 87 b6 c0 37 cb 69 4e 38 f3 c9 71 39 c0 17 1a ba
       2.297318e-05 4.9212755e-05 0.00023058783 -0.0005878173
000030 8f b8 b6 b7 e3 c0 e1 39 b0 c6 ed b9 a8 f0 c2 39
       -2.1782032e-05 0.00043059056 -0.00045352196 0.00037181866
000040 c5 3d 21 3a cb cf 48 39 f0 4c 38 38 dc 3b b1 b9
       0.0006150867 0.00019150895 4.3940672e-05 -0.0003380467
000050 55 28 eb b9 d9 11 a8 39 ff 9f 66 ba b5 6c 75 b9
       -0.00044852743 0.00032056755 -0.0008797645 -0.00023405517
000060 d0 67 9c b9 aa 40 fa 39 cc e8 0a 3a 8b cf 8d 39
       -0.00029831985 0.00047731894 0.00052989717 0.00027048247
000070 11 1f 9d b9 bc 47 9a b9 73 c6 b8 38 da 31 42 3a
       -0.0002996852 -0.00029426615 8.810768e-05 0.0007407941
000080 c6 fa fe 39 ed 01 8c 3a 81 b1 83 ba 31 4f 06 ba
       0.00048633496 0.0010681726 -0.0010047407 -0.0005123495
000090 08 8e b8 39 0f bb 88 3a c5 c4 4b 3a 2a 00 91 39
       0.00035201036 0.0010431724 0.00077731564 0.00027656677
0000a0 7b 22 22 3a 7e b6 65 b8 f0 7e 2e 39 2c de 46 b9
       0.00061849476 -5.4767814e-05 0.00016641221 -0.00018965517
0000b0 1d ee 5c 39 25 3f 50 3a 87 4d c8 36 8d 03 9d 39
       0.00021069539 0.00079439796 5.96949e-06 0.0002994802
0000c0 82 a9 98 39 e3 51 8d 39 ea 29 cf 38 2d 7e eb 39
       0.00029117992 0.00026954626 9.878336e-05 0.000449167
0000d0 9e ff a4 39 5b 8a ef 39 9d 8f 34 b9 22 4f 00 3a
       0.00031470967 0.00045688715 -0.00017219638 0.0004894604
0000e0 30 61 27 b7 bd 65 b6 39 b8 b5 ca b9 97 38 77 b9
       -9.976604e-06 0.00034789546 -0.00038663833 -0.00023576837
0000f0 36 52 16 ba fd e5 06 ba 78 e6 00 39 49 bb 60 b9
       -0.0005734296 -0.0005145965 0.00012292888 -0.00021432074
000100 8a 45 9e b9 89 c2 ad b9 0b 07 26 3a 50 c9 03 37
       -0.0003018792 -0.0003314207 0.0006333447 7.85508e-06
000110 00 07 22 39 14 32 51 39 1a ba e9 b9 26 95 e4 b9
       0.00015452132 0.00019950449 -0.0004457988 -0.00043598673
000120 ee b9 85 39 02 43 2f 39 29 11 4c 3a e2 a3 76 ba
       0.00025506265 0.00016714263 0.00077845395 -0.0009408576
000130 96 70 57 39 73 9b c6 b8 f8 7f 38 ba c0 aa 2b 39
       0.0002054594 -9.4703304e-05 -0.0007038112 0.0001637144
000140 6b 9c 49 b9 92 44 f3 37 a9 b9 8c 39 74 1d 99 b7
       -0.00019227124 2.8999788e-05 0.00026841208 -1.8252736e-05
000150 3c fc 27 ba 84 67 1c 3a ff 9c f9 39 fc 55 9c 38
       -0.000640813 0.0005966353 0.00047609952 7.4546755e-05
000160 ab cb 4d 38 d4 1f c4 b9 cd 4e a2 b9 af e2 d1 39
       4.906549e-05 -0.00037407747 -0.0003095776 0.0004003248
000170 13 84 2d 38 e3 e9 d6 b7 79 f4 1e ba 80 f8 16 37
       4.1369418e-05 -2.56197e-05 -0.0006063651 8.998555e-06
000180 36 f6 b2 38 b7 35 96 39 64 78 f7 b9 2a de a1 b8
       8.533562e-05 0.0002865025 -0.0004720121 -7.7184595e-05
000190 2f ff 0c ba f6 f9 d2 39 62 f1 80 39 cf 69 a3 39
       -0.00053786015 0.00040240557 0.00024593907 0.00031168616
0001a0 e4 f7 bc 39 73 5f 36 b9 c0 af a3 39 ad a6 27 b9
       0.00036042847 -0.0001739243 0.00031220727 -0.00015988453
0001b0 e2 36 e5 38 4c 25 b6 38 10 02 8e 3a e8 88 96 b9
       0.00010929794 8.685383e-05 0.0010834355 -0.00028712233
0001c0 4a de fc b9 e4 fa 1f 3a 66 f3 e1 b7 06 75 c5 b8
       -0.00048230804 0.0006102754 -2.6935431e-05 -9.415489e-05
0001d0 e0 5f ff 39 76 d1 21 b9 c9 fd be b9 4a a3 64 39
       0.00048708823 -0.00015432187 -0.0003642871 0.00021804604
0001e0 32 6a 73 b8 e8 9a ef b8 0a c9 9a 39 c8 4f 6d 39
       -5.8034617e-05 -0.000114252616 0.00029522955 0.00022631802
0001f0 8b 83 85 b9 ce 1a ea 39 90 98 cf 39 36 6a 45 b9
       -0.00025465744 0.0004465193 0.00039595785 -0.0001882695
000200 db ed c6 38 f1 63 a2 b9 fc 2e a0 b8 c3 f2 81 b9
       9.48568e-05 -0.0003097351 -7.638146e-05 -0.0002478567
000210 f0 ad d8 39 9b 7c 39 39 46 05 2c ba 58 e5 9f 39
       0.00041328324 0.00017689394 -0.0006562065 0.00030497718
000220 aa 17 99 39 fa 7f 8d b9 39 0b 70 39 d2 15 c7 ba
       0.00029200065 -0.00026988966 0.00022892364 -0.0015188998
000230 84 94 d3 39 4b b2 fb b9 46 18 12 3a 71 a5 6e 38
       0.0004035571 -0.0004800729 0.0005573075 5.68977e-05
000240 91 fb d7 38 64 20 9c 39 60 32 54 3a f1 dd ab b9
       0.00010298857 0.00029778772 0.00080946647 -0.0003278102
000250 1e 67 3a b9 52 b1 69 38 fd a9 3a 39 0b 38 57 b9
       -0.00017776756 5.571667e-05 0.00017801668 -0.00020524875
000260 4c f0 c9 39 ac b1 90 b9 4a 50 e6 b9 33 13 29 39
       0.00038516743 -0.00027598196 -0.0004392884 0.00016124248
000270 37 35 44 39 f2 99 ce 37 d9 a7 30 3a b4 3b 6f b9
       0.0001871184 2.46288e-05 0.00067388784 -0.00022815057
000280 c7 26 15 3a 2b cd 10 b9 10 d4 64 b9 82 63 3e b9
       0.0005689677 -0.00013809341 -0.00021822774 -0.00018156882
000290 2e eb fb b8 5c 84 89 b9 51 b4 3a b8 8e df 95 b9
       -0.00012012418 -0.00026229292 -4.451379e-05 -0.00028586056
0002a0 71 77 53 39 72 2f b0 39 07 63 27 b9 4f 97 ea b7
       0.00020167023 0.00033604685 -0.00015963252 -2.7965432e-05
0002b0 ff 3c f8 39 2f 40 a6 39 64 7d f2 38 4c 48 19 b8
       0.00047347692 0.00031709808 0.00011562815 -3.6545374e-05
0002c0 74 ec f7 39 d9 f8 a6 37 99 d3 88 ba 9d 18 1e 3a
       0.00047287683 1.990462e-05 -0.0010439038 0.00060308893
0002d0 10 c5 9f b8 ef a0 9b 39 f8 48 8b 39 3c 20 51 39
       -7.6184166e-05 0.0002968381 0.00026566512 0.00019943801
0002e0 7e 29 70 37 93 76 21 ba ec 63 1a 39 d1 41 3a 3a
       1.4314775e-05 -0.00061593315 0.00014723808 0.00071051443
0002f0 2f ce da b7 09 63 11 38 62 a8 9d b9 51 8c 6a 3a
       -2.6083637e-05 3.4662928e-05 -0.00030070829 0.00089473004
000300 f9 50 94 38 99 c3 66 39 03 a4 e1 b9 17 67 e3 38
       7.072272e-05 0.00022007375 -0.00043037542 0.000108434055
000310 29 82 1a ba 7d d2 cf b8 ad ec 54 39 91 d1 fe 39
       -0.0005894029 -9.909736e-05 0.00020306064 0.00048602794
000320 d9 61 30 39 cb 33 58 ba eb 99 d3 38 2e b0 0c 38
       0.00016821119 -0.0008247464 0.000100899335 3.354268e-05
000330 90 c5 44 3a bd 0a 5c 37 e5 0f 97 b9 2e 8b 16 b9
       0.0007506246 1.3115522e-05 -0.00028812807 -0.00014356963
000340 ed 47 8d 38 06 0c 21 3a b5 ba 00 3a 54 89 38 b9
       6.736801e-05 0.0006143454 0.0004910634 -0.00017598766
000350 20 90 8a b9 5f 39 a0 39 e1 42 f5 38 46 8e 16 37
       -0.00026428793 0.00030560323 0.000116949675 8.973822e-06
000360 87 27 28 ba db 03 23 38 c3 d4 a8 b9 c7 61 f1 b9
       -0.00064145814 3.886582e-05 -0.00032201977 -0.00046039952
000370 a0 3b 14 ba f0 e9 d5 38 cf 4d 4d 39 c2 6f 59 38
       -0.0005654637 0.00010200206 0.0001957931 5.1840914e-05
000380 42 fd 5f 38 2e b8 84 38 75 1b 05 ba e9 f5 35 39
       5.3403208e-05 6.3285566e-05 -0.0005077639 0.00017353114
000390 07 b3 9e b9 b5 ad 86 b8 28 67 0f 3a f8 c7 f7 b9
       -0.00030269494 -6.4219734e-05 0.00054703886 -0.000472605
0003a0 d1 63 58 3a f1 94 e8 39 e9 6d 80 ba bd ce 66 3a
       0.000825462 0.00044361458 -0.0009798381 0.000880461
0003b0 2c 67 2f 3a 6c 75 04 ba 3f 92 40 b9 02 04 cf b9
       0.0006691094 -0.00050528976 -0.00018365028 -0.00039485103
0003c0 69 91 7b b9 c0 71 ac 39 0c 87 92 b9 33 29 93 39
       -0.00023991395 0.00032891147 -0.00027947908 0.0002806872
0003d0 fd 9b 8f b8 be 5c 7d 38 25 49 31 3a 76 c3 a1 b9
       -6.8478264e-05 6.0406273e-05 0.00067629135 -0.00030853943
0003e0 f4 71 92 b9 61 57 c2 b9 2c bf ac 39 e6 a6 33 b9
       -0.00027932192 -0.00037067666 0.0003294883 -0.00017132945
0003f0 08 06 b1 39 76 69 df 39 1b 26 cb 39 a6 4e 69 b9
       0.00033764564 0.0004261245 0.00038747568 -0.0002224991

network.1.weight f4 [256]
000000 dd e3 80 3f 0d 47 7f 3f 3c 70 7d 3f 13 df 7c 3f
       1.0069538 0.9971779 0.9899938 0.98777884
000010 5d 54 81 3f 6d b9 81 3f a5 35 81 3f 80 b1 7e 3f
       1.0103871 1.0134712 1.0094496 0.99489594
000020 75 be 80 3f fb 34 82 3f cd 92 7d 3f 31 4a 80 3f
       1.0058123 1.0172418 0.99052125 1.0022641
000030 e6 f5 7b 3f e7 61 7e 3f e8 0b 81 3f 03 a7 7f 3f
       0.98422086 0.9936814 1.0081758 0.99864215
000040 78 b9 80 3f 54 92 80 3f da 93 81 3f 83 45 7c 3f
       1.00566 1.0044656 1.0123246 0.98543566
000050 49 49 7e 3f c9 71 7c 3f 37 87 81 3f 53 ab 7d 3f
       0.99330574 0.9861112 1.0119389 0.99089545
000060 9e 36 81 3f 92 d6 82 3f 6d 53 80 3f 08 be 7c 3f
       1.0094793 1.0221732 1.002546 0.98727465
000070 4c d8 80 3f 88 3e 7f 3f e9 dc 7d 3f 25 41 7e 3f
       1.0066009 0.9970479 0.9916521 0.9931815
000080 15 4d 80 3f c8 a5 80 3f 4d 72 7f 3f f5 43 7e 3f
       1.0023524 1.0050592 0.99783784 0.99322444
000090 0c d7 7e 3f 6f 3b 7f 3f c5 72 7e 3f 9f e7 80 3f
       0.99546885 0.99700063 0.99393874 1.0070685
0000a0 a2 2e 7f 3f e6 a3 7f 3f a2 87 7d 3f d7 69 7f 3f
       0.9968053 0.99859464 0.99035084 0.99770874
0000b0 73 dc 80 3f 02 94 7f 3f 04 18 7e 3f 65 00 81 3f
       1.0067276 0.99835217 0.99255395 1.0078245
0000c0 1a bc 7f 3f f8 ad 81 3f 7d 89 7f 3f f6 37 7c 3f
       0.99896395 1.0131216 0.99819165 0.9852289
0000d0 77 d8 80 3f e6 a6 81 3f 50 d2 7f 3f 6a 40 80 3f
       1.006606 1.0129058 0.99930286 1.0019658
0000e0 ef ca 80 3f 98 6e 7c 3f c1 71 80 3f 8a f1 7f 3f
       1.006193 0.9860625 1.0034715 0.99977934
0000f0 17 e4 7e 3f c5 a5 82 3f 27 4a 81 3f dd c4 80 3f
       0.9956679 1.0206839 1.0100754 1.0060078
000100 ad 2a 7e 3f 00 c3 82 3f 16 8f 7f 3f 7c ff 80 3f
       0.9928387 1.0215759 0.99827707 1.0077968
000110 2c d9 7d 3f 0a f1 81 3f 19 0b 80 3f d6 74 81 3f
       0.99159503 1.0151684 1.0003387 1.011378
000120 e0 9a 7f 3f 55 9b 80 3f f6 84 7e 3f c3 5e 81 3f
       0.99845695 1.0047404 0.9942163 1.0107044
000130 27 4c 7f 3f ea 30 7d 3f d0 51 80 3f a4 80 80 3f
       0.99725574 0.9890276 1.0024967 1.0039258
000140 7e ab 80 3f 1e d3 7c 3f b1 40 80 3f fd 8b 7d 3f
       1.0052335 0.9875964 1.0019742 0.9904173
000150 a5 79 80 3f c5 0e 7e 3f 2c 13 81 3f dc 15 7d 3f
       1.0037123 0.99241287 1.0083976 0.9886148
000160 47 18 7e 3f 2b 15 7f 3f 71 cb 80 3f 60 83 80 3f
       0.99255794 0.99641675 1.0062085 1.0040092
000170 bb 30 80 3f f6 2b 81 3f 11 2c 7f 3f f2 c6 7f 3f
       1.0014871 1.0091541 0.99676615 0.9991294
000180 05 9b 80 3f 8c f0 7d 3f 7d 03 80 3f 45 13 80 3f
       1.0047308 0.9919517 1.0001065 1.000588
000190 a3 b7 80 3f 71 ce 81 3f 6b 53 81 3f 2b 5c 7f 3f
       1.0056041 1.0141126 1.0103582 0.9975001
0001a0 0d 66 80 3f 3c 61 7e 3f 52 f2 80 3f 57 7e 7b 3f
       1.0031143 0.9936712 1.007395 0.98239654
0001b0 0f f4 7c 3f c7 a6 81 3f d4 b9 7e 3f 38 54 7f 3f
       0.98809904 1.0129021 0.995023 0.9973788
0001c0 4b 7b 7e 3f ff 17 7f 3f 0e d2 80 3f 90 14 80 3f
       0.9940688 0.9964599 1.0064104 1.0006275
0001d0 94 97 80 3f 13 93 7f 3f 71 dc 80 3f 52 cf 80 3f
       1.0046258 0.9983379 1.0067273 1.0063269
0001e0 3b 0b 7e 3f 58 18 80 3f ce a0 81 3f 40 c8 7b 3f
       0.99235886 1.0007429 1.0127199 0.9835243
0001f0 c4 f9 7d 3f 65 db 7f 3f 45 4c 80 3f b2 52 81 3f
       0.9920924 0.99944144 1.0023276 1.0103362
000200 ab d2 7a 3f 84 3f 80 3f 18 e1 7b 3f 4e 24 7d 3f
       0.97977704 1.0019383 0.9839034 0.9888352
000210 c0 98 80 3f 65 63 82 3f 6a 59 80 3f b1 ce 7d 3f
       1.0046616 1.0186583 1.0027287 0.9914351
000220 7e 91 7c 3f 7b c8 81 3f 8a 7e 7f 3f af 90 81 3f
       0.98659503 1.0139307 0.9980246 1.0122279
000230 27 dd 81 3f c3 32 80 3f 11 43 7f 3f f7 cc 7f 3f
       1.0145615 1.0015491 0.9971171 0.99922127
000240 4a 29 7f 3f 04 e1 80 3f 6c 3e 80 3f 9e d6 80 3f
       0.9967238 1.0068669 1.001905 1.0065496
000250 4f b1 80 3f f6 33 7f 3f ca 14 7d 3f 2d dc 7f 3f
       1.005411 0.9968866 0.98859847 0.99945337
000260 29 02 7e 3f 35 e6 7d 3f 9e 7d 7f 3f ab 32 81 3f
       0.99222046 0.99179393 0.9980105 1.0093588
000270 8d 7c 7b 3f 4f 93 7d 3f 7d 2f 80 3f 1c dd 81 3f
       0.98236924 0.990529 1.0014492 1.0145602
000280 1c 4c 81 3f 73 2b 81 3f be 09 80 3f 38 6a 80 3f
       1.0101352 1.0091385 1.0002973 1.0032415
000290 96 10 80 3f d5 83 7d 3f 4b 72 7d 3f 21 a0 7c 3f
       1.0005062 0.99029285 0.9900252 0.9868184
0002a0 6c 1f 80 3f ad 39 7f 3f 6a ce 7f 3f 38 23 7e 3f
       1.0009589 0.9969738 0.9992434 0.9927249
0002b0 ca a0 7e 3f b5 54 7f 3f 48 11 80 3f 97 64 80 3f
       0.99464095 0.9973863 1.0005274 1.0030698
0002c0 13 c6 81 3f 9f 7e 80 3f 20 68 7e 3f 14 81 80 3f
       1.0138572 1.0038642 0.9937763 1.0039392
0002d0 e5 7c 81 3f 17 44 7c 3f 2e 84 7f 3f b0 cf 80 3f
       1.011624 0.98541397 0.99811065 1.0063381
0002e0 a9 39 7f 3f ae 30 7f 3f 7d 75 7e 3f 45 01 80 3f
       0.9969736 0.99683654 0.9939802 1.0000387
0002f0 3b e3 80 3f 91 97 7d 3f 2c dc 7f 3f f7 91 7d 3f
       1.0069345 0.99059397 0.9994533 0.9905085
000300 2d 05 80 3f 2d 95 7f 3f 94 25 80 3f fb f5 80 3f
       1.000158 0.99837 1.0011468 1.0075067
000310 67 8e 7f 3f 1f 50 7f 3f ac 58 80 3f dc 0e 7f 3f
       0.99826664 0.9973163 1.002706 0.9963205
000320 91 37 80 3f d8 84 80 3f c6 f0 7c 3f 7a c3 80 3f
       1.0016958 1.0040541 0.9880489 1.0059655
000330 96 a2 80 3f f8 6b 7d 3f e6 8b 80 3f d9 9c 7f 3f
       1.0049617 0.9899287 1.0042694 0.99848706
000340 2d d2 7e 3f b1 e0 80 3f b3 35 7e 3f 57 fc 81 3f
       0.9953945 1.006857 0.9930069 1.0155133
000350 3a fe 7e 3f 00 87 7e 3f ef 8f 80 3f 5e 11 81 3f
       0.9960667 0.99424744 1.0043925 1.0083425
000360 2c 47 7e 3f 69 4d 7e 3f 4a f1 82 3f 74 fd 7e 3f
       0.9932735 0.9933687 1.0229886 0.9960549
000370 41 37 80 3f 6d 58 7f 3f cd 36 7e 3f 40 3c 80 3f
       1.0016862 0.997443 0.9930237 1.0018387
000380 e3 dc 7d 3f 1e 4f 80 3f e2 7e 80 3f b8 f7 7f 3f
       0.9916517 1.0024145 1.0038722 0.99987364
000390 7c eb 80 3f 20 e4 7e 3f 5f d9 7e 3f f5 c2 80 3f
       1.0071864 0.9956684 0.9955043 1.0059496
0003a0 83 f3 7e 3f 45 49 7d 3f 43 60 80 3f 9b 29 83 3f
       0.9959032 0.98939925 1.0029377 1.0247072
0003b0 ff 42 81 3f bb 2d 80 3f 12 6e 80 3f 6a 61 7f 3f
       1.009857 1.0013956 1.0033591 0.9975802
0003c0 e8 1f 81 3f 2a e8 7f 3f 63 8c 7e 3f 9f 53 80 3f
       1.0087862 0.9996363 0.99432963 1.0025519
0003d0 d4 0d 80 3f 7b 1b 80 3f ad 29 7e 3f 66 91 7d 3f
       1.000422 1.0008386 0.9928234 0.99049985
0003e0 44 06 7f 3f 3d 0b 7e 3f f1 f2 7f 3f a3 7c 7e 3f
       0.99618936 0.992359 0.99980074 0.9940893
0003f0 80 6f 7c 3f 6a e7 7e 3f dd 77 7d 3f 7a dd 7b 3f
       0.98607635 0.9957186 0.9901102 0.9838482

network.1.bias f4 [256]
000000 a2 bd 3a bb 9d 30 2c bc 15 21 cd bb 55 6f 4a bc
       -0.0028494378 -0.010509637 -0.006260047 -0.012355645
000010 7e b6 41 3c 5c cc 59 3c da 59 0c 3c 2e 01 25 bb
       0.011823295 0.013293352 0.008566344 -0.0025177705
000020 43 85 33 3c b7 41 87 3c 60 35 15 bc ee 99 fe 39
       0.010957065 0.016510827 -0.009106964 0.00048561342
000030 49 05 9a bb 33 0b e7 bb 1b 14 88 3c 21 12 c3 ba
       -0.004700337 -0.0070508956 0.01661115 -0.0014882722
000040 fa 52 68 3a f0 d9 b3 3b 3e 7c 0a ba 9c ad 27 bc
       0.0008862462 0.0054886267 -0.0005282796 -0.010234263
000050 e6 a6 c0 3a c1 e2 3b bc 57 b9 cf 3b c8 94 cb bb
       0.0014698177 -0.011467637 0.006339233 -0.0062128045
000060 a0 e5 be 3b 9c 28 96 3c 8f 2e 42 3a 28 e0 a0 bc
       0.0058257133 0.018329911 0.00074074505 -0.019638136
000070 13 98 a8 3b 8c fb 4b bc f9 90 55 3a af 32 a0 bb
       0.005145082 -0.01245011 0.0008146908 -0.0048888545
000080 10 f6 27 bb b5 82 88 3b fb a9 0f bc 9d 1f 35 bb
       -0.0025628842 0.004165972 -0.008768554 -0.0027637251
000090 32 1a a6 ba 95 b5 ff ba 16 a2 ca bb 83 6f 40 3b
       -0.0012672602 -0.0019509072 -0.006183873 0.002936334
0000a0 92 08 60 bb d1 f1 30 bb bf db 8c bb d7 66 be 3a
       -0.0034184796 -0.0026999603 -0.0042986567 0.0014526498
0000b0 60 16 e0 3b ce 59 13 bc 6d da 49 bc be 1a 1a bb
       0.006838605 -0.008993579 -0.012320143 -0.0023514475
0000c0 4a 29 12 b9 0a 37 4c 3b d1 9d b6 bb 9e 37 60 bb
       -0.00013939026 0.0031160736 -0.0055730124 -0.0034212838
0000d0 84 c9 77 3b d3 97 c9 3b 48 fd ae 3b 70 c6 fe b9
       0.0037809322 0.006152132 0.005340252 -0.00048594503
0000e0 e3 6f 81 b9 82 c0 42 bc 78 4c b8 b9 72 d2 ad bb
       -0.0002468816 -0.011886718 -0.00035152189 -0.005304628
0000f0 40 0a 0e bc 0b af 3a 3c 97 17 df 3b 60 35 63 37
       -0.008669436 0.011394273 0.006808232 1.3542682e-05
000100 1c 16 c7 bb 6e d2 68 3c 36 73 37 bb ea a8 5a 3b
       -0.0060756337 0.014210327 -0.0027992255 0.003336484
000110 22 42 7c bc bd b1 cb 3b bb c7 3a bb f9 72 c1 b8
       -0.015396627 0.0062162564 -0.0028500396 -9.2243725e-05
000120 5d 31 0e bc 4c 8e 99 bb 0c d1 33 bc 9d 3c 1c 3c
       -0.008678761 -0.0046861526 -0.010975134 0.009535936
000130 76 4a 40 bc eb 51 0b ba d5 44 b0 bb 5e a6 8b 3a
       -0.011736503 -0.0005314636 -0.005379299 0.001065444
000140 03 61 d7 3b 73 78 0a 3a fe c4 87 bb 49 41 86 bb
       0.006572844 0.00052822306 -0.0041433563 -0.004097138
000150 85 6f 8b 3b bb be f9 bb e0 43 ac 3b 87 7b 63 bc
       0.0042552375 -0.007621614 0.005257115 -0.013884432
000160 5d a4 dc bb 44 57 5b bc 64 6a 45 3c 1a 89 88 bb
       -0.006733461 -0.013387505 0.012049291 -0.0041667344
000170 dd e3 e6 38 90 54 d6 3a 57 41 07 bb c3 90 66 3b
       0.000110096975 0.0016352106 -0.002063831 0.00351815
000180 74 c9 31 3a cb 17 66 bc fe 37 25 3b ac 4e 93 3a
       0.0006782033 -0.014043759 0.0025210376 0.0011238656
000190 5e 2d bc 3b 78 15 56 3c d8 1b ae b9 1b 39 15 bc
       0.005742713 0.013066642 -0.0003320861 -0.009107853
0001a0 54 60 82 3a 55 cd 3f bc 78 8f e6 3b 55 bd 88 bc
       0.0009946921 -0.01170667 0.007036146 -0.016691843
0001b0 71 b5 b6 bc c9 d9 39 3c fd f6 41 bb f7 56 70 bc
       -0.022303315 0.011343428 -0.002959668 -0.014669172
0001c0 c7 76 8d bb 84 6d 72 bb 5b 98 92 3b b8 1a f2 bb
       -0.004317138 -0.0036991546 0.0044737286 -0.007388439
0001d0 9e ba 97 3a aa aa af 3b 4f 2b 6a bb cd 16 98 3b
       0.0011576002 0.005360921 -0.003573138 0.00464139
0001e0 2e 70 1f ba 0b 7f 89 3b ad 1b 12 3c a8 18 06 bc
       -0.0006082085 0.004196053 0.008917731 -0.008184589
0001f0 2e 53 99 bb 16 19 a3 bb 51 db 0a bb 0a 8e 02 3c
       -0.0046791052 -0.0049773557 -0.0021187852 0.007968435
000200 e7 84 bd bc b2 16 4f bb 7f 97 48 bc 4d 1c dd bb
       -0.023134662 -0.003159922 -0.012243151 -0.0067477585
000210 50 03 0a b9 4e 78 b7 3c ae 57 57 3b fa e8 74 bc
       -0.0001316194 0.022396233 0.0032858658 -0.014948124
000220 ff 03 6f bc d7 be 3d 3c de f2 c5 bb f1 1e 9f 3b
       -0.014588355 0.011581144 -0.006040915 0.0048559834
000230 03 a5 e9 3b ab ad f5 3a 50 2a 9e bb 42 d5 c8 39
       0.0071302666 0.0018743774 -0.0048268214 0.00038305862
000240 dc 3f ad 3a ad 10 4e 3c a8 a8 17 bb f7 56 0d 3b
       0.0013217884 0.012577218 -0.0023141298 0.0021566728
000250 02 30 3e 3b 78 1d 46 38 c3 11 d5 bb 96 bb 6b 3c
       0.0029020314 4.7234324e-05 -0.0065023615 0.014387986
000260 7a 94 52 bb 22 a2 dc bb a4 00 f2 3b 88 1c 9c bb
       -0.0032131956 -0.006733195 0.0073853303 -0.0047641434
000270 6a ae 88 bc 04 0b f7 bb 2d cd 5a bb e5 b2 bc 3b
       -0.01668473 -0.007539155 -0.0033386454 0.0057586306
000280 72 0b 9d 3c 5a 11 53 bb 1e 20 6b 3b 2b 5c 5d b9
       0.019170497 -0.0032206387 0.0035877298 -0.00021110538
000290 4c 25 1e 3b 30 2e 32 bc 3e bc 24 bc 5b 00 15 bc
       0.0024131117 -0.01087527 -0.010054646 -0.009094323
0002a0 8b 1d 70 bb e1 7a c0 39 3d 87 d2 bb 2c 54 5a bc
       -0.0036638703 0.00036712646 -0.006424813 -0.013325732
0002b0 5d 73 c9 bb 2f 27 95 bb c2 2b 82 ba 6d 3b a5 3b
       -0.0061477856 -0.00455179 -0.0009931254 0.0050424845
0002c0 b2 74 36 bc 91 01 87 3a c4 9e 7e bc 35 9a 8b 3b
       -0.011136221 0.001030015 -0.015540782 0.0042603263
0002d0 e8 4a 40 3c da 96 19 bb 19 bf 82 bb 5b a3 1c 3c
       0.011736609 -0.0023435862 -0.003990066 0.009560431
0002e0 c9 cb 98 bb 34 e4 48 bb 9a 8f b7 bb 41 eb 8f 3b
       -0.004662965 -0.0030653598 -0.0056018354 0.004392058
0002f0 f4 df ca 3b 6e 62 44 bc 9f c0 7c 3b 60 c2 28 bc
       0.006191248 -0.011986358 0.003856696 -0.010300249
000300 07 74 b5 bb d3 a1 bc ba d2 b0 e1 ba 6c c6 22 3b
       -0.005537513 -0.0014391489 -0.0017218834 0.0024837507
000310 6f ec 95 bb 75 79 14 b9 78 61 f5 3a 17 65 52 bb
       -0.004575304 -0.00014159626 0.0018721065 -0.0032103711
000320 9e eb 81 b9 ca 55 7b 3c 71 e7 91 bc 83 ae c6 bb
       -0.00024780346 0.015340278 -0.017810555 -0.006063284
000330 3e c2 c0 3b 40 ee 79 bc 70 0b 25 bb 2d 14 82 bb
       0.0058825305 -0.015254557 -0.002518382 -0.0039696903
000340 9d d4 10 bc 86 81 33 3c 20 db e1 b9 60 ac ea bb
       -0.008839753 0.010956174 -0.00043078605 -0.007161662
000350 5b 5c 7b 3b f8 68 37 bb 45 9a 06 3b b9 08 24 3c
       0.0038354609 -0.002798615 0.002053873 0.010011845
000360 16 47 08 bc 0b 69 a8 3a 20 97 5a 3c 0b 66 a6 bb
       -0.008317729 0.0012848688 0.013341695 -0.0050780824
000370 14 6d a8 3b 6c fd 0c bc 27 57 0a bc 69 1b 79 bb
       0.0051399563 -0.008605342 -0.00844363 -0.0038010722
000380 13 79 09 bc 50 98 2d bb 88 0f f4 ba 61 08 9a bb
       -0.008390683 -0.002648849 -0.0018620351 -0.004700706
000390 0a 97 2a 3a be 26 d8 bb 6d 4d 85 bb 01 12 04 3a
       0.0006507492 -0.0065964153 -0.0040680678 0.0005038083
0003a0 21 58 fd bb 8d 39 6d bb d9 84 0a 3c 15 0a 54 3c
       -0.007731453 -0.0036197633 0.008454525 0.012941857
0003b0 e0 29 e0 3b 70 2b 98 3b 19 a3 7b 3a 9a 3b 21 bc
       0.0068409294 0.00464385 0.00095991936 -0.00984087
0003c0 db 24 7d 3b 73 70 12 bc b7 bc e6 3b 3e 3d 00 3b
       0.0038626704 -0.008937943 0.0070415395 0.0019567753
0003d0 61 dd 63 bb b5 b5 b0 3b cc 1e fd bb 1e 88 16 ba
       -0.0034769403 0.005392755 -0.0077246185 -0.0005742329
0003e0 7d aa 10 bb 88 07 13 bb 98 96 94 3b 57 8a d4 3b
       -0.0022074275 -0.002243491 0.0045345537 0.006486218
0003f0 f7 c0 25 bc 71 3f 1e 3c 07 bb e7 bb b9 f1 bc bc
       -0.010116807 0.00965868 -0.007071856 -0.023064481

network.1.running_mean f4 [256]
000000 d8 fe 59 3b 84 e4 5e 3b 80 ba b1 b9 98 83 56 3b
       0.003326347 0.0034010718 -0.00033899024 0.0032732245
000010 f6 cf ca ba 1a 2f 9c ba 10 4c 02 bb d2 95 20 bb
       -0.0015473354 -0.0011915893 -0.0019881763 -0.0024503362
000020 5c 44 fa 3a 2c 11 91 ba 50 19 85 b9 70 b9 95 39
       0.0019093859 -0.001106774 -0.00025386596 0.00028557656
000030 60 d2 99 b8 44 b9 0d bb 64 5c 2d ba 90 f3 1f ba
       -7.334794e-05 -0.002162532 -0.00066131935 -0.00061016623
000040 a4 d9 07 ba 52 36 80 3b 00 b4 f8 b7 91 94 04 bb
       -0.0005182272 0.0039127255 -2.9647723e-05 -0.0020230154
000050 cf 2a 52 bb 34 56 5d 3b 29 2e 46 bb 24 f2 40 bb
       -0.0032068973 0.0033773305 -0.0030239916 -0.0029441202
000060 16 13 19 3b 90 a8 b3 39 fa a6 e0 3b 50 1b c7 3a
       0.0023357323 0.0003426713 0.0068558427 0.0015190635
000070 7c 24 9a 3a 00 fd d1 38 8a a9 70 3b 4d cc e3 3a
       0.0011760141 0.000100130215 0.0036722147 0.0017379612
000080 60 17 e7 39 98 09 a0 3a f0 94 74 bb 68 36 fb ba
       0.0004407717 0.001220989 -0.003732022 -0.0019165995
000090 13 c6 49 3b 0c 32 7e 3b c8 b3 02 b9 98 4e 9b 3a
       0.0030788227 0.0038787154 -0.0001246474 0.0011848984
0000a0 e8 17 af b9 8a d3 68 bb ac c5 30 bb c2 49 8b bb
       -0.00033396413 -0.0035526478 -0.002697329 -0.004250736
0000b0 0d ca 19 bb 80 53 b2 b7 30 25 59 ba bc 16 77 3b
       -0.002346638 -2.1258136e-05 -0.00082834344 0.003770276
0000c0 58 ee 9f 3a 80 ad 6d ba 86 79 df 39 c0 68 65 3a
       0.0012201769 -0.0009066686 0.00042624417 0.00087512657
0000d0 2b e9 3c bb e4 dc a3 bb 20 ad fd 39 c0 d6 aa b8
       -0.0028825502 -0.0050006974 0.0004838491 -8.146232e-05
0000e0 70 10 9d ba 4b 9b 95 3b 92 ec 01 3b 03 d8 6e bb
       -0.0011983048 0.0045656315 0.0019824845 -0.003644467
0000f0 5c df 61 ba f6 f1 c3 bb 22 bc 59 bb 6f b0 85 bb
       -0.0008616352 -0.0059797717 -0.0033223708 -0.0040798704
000100 70 9d c2 3a 70 24 87 ba f7 3b 84 3b db 19 a8 bb
       0.0014847945 -0.0010310542 0.0040354687 -0.0051300353
000110 d0 aa 91 3a 04 e6 90 3a 52 ae c6 bb cf 9d b4 ba
       0.0011113528 0.0011054878 -0.006063261 -0.0013779941
000120 54 46 80 3b 49 3f 80 bb 0a e7 62 bb 24 bf 5c bb
       0.0039146338 -0.003913794 -0.0034622573 -0.0033683265
000130 d4 c5 b2 3a 6c 04 f9 3b a4 7e 1d 3b 24 d8 56 bb
       0.001363928 0.007599404 0.0024031783 -0.0032782638
000140 0c 9e 21 bb 20 df 8e 39 18 85 95 3a 34 c2 90 bb
       -0.0024660854 0.00027250592 0.0011407463 -0.004417682
000150 38 c2 35 bb 40 72 19 38 8c 40 63 ba 08 80 12 bb
       -0.0027734172 3.6584446e-05 -0.0008668981 -0.0022354145
000160 d0 70 6a 3b bb 73 86 bb 7c 5b 08 bb ec 24 b1 bb
       0.0035772808 -0.0041031516 -0.0020806482 -0.0054060128
000170 b0 2d 8e ba f1 d5 00 bc 73 85 80 ba 83 85 a4 3b
       -0.0010847356 -0.007863508 -0.0009805396 0.0050207986
000180 aa 2e 6f ba 47 ab 2d bb 43 89 32 bb 86 4e 69 3b
       -0.000912408 -0.0026499794 -0.002724246 0.0035599782
000190 e8 1f 47 3a ac 53 13 3b a8 6c 95 ba 38 3a 83 bb
       0.0007596002 0.0022480292 -0.001140018 -0.004004743
0001a0 e4 7f cd 3b 48 c3 c2 ba 56 bb 64 bb e8 bc 3e ba
       0.0062713493 -0.0014859224 -0.00349017 -0.0007276074
0001b0 57 d2 9b 3a 56 00 4b 3b d0 5d ce 3a c0 3e 72 ba
       0.0011888248 0.0030975542 0.0015744511 -0.0009240918
0001c0 e9 b3 51 3b 2a cf b1 ba c2 e7 7e 3b 22 3a 02 bb
       0.0031998104 -0.0013565768 0.0038895463 -0.0019871076
0001d0 48 51 02 ba d0 95 f9 39 bc c9 e6 ba 1c e8 7e 3b
       -0.00049712183 0.000476046 -0.0017607729 0.0038895672
0001e0 31 cd 89 bb c3 81 3b 3b b2 5e 4c 3b 7d 56 5c 3b
       -0.004205369 0.002861128 0.0031184372 0.0033620887
0001f0 68 f5 54 39 43 23 92 b9 90 8f d7 3a 04 e3 75 3b
       0.00020309316 -0.00027873562 0.0016445983 0.0037519345
000200 c0 51 a9 39 66 d9 0f 3a 1d 99 6f bb 7b a7 93 3a
       0.000322951 0.0005487412 -0.0036559768 0.0011265123
000210 d4 32 39 3b 50 af f8 39 3c 23 bf ba 60 12 49 39
       0.0028259056 0.00047432864 -0.0014582644 0.00019175699
000220 cc c9 1e bb 14 79 78 3a 60 89 07 bb c0 88 86 39
       -0.0024229167 0.0009478491 -0.0020681247 0.00025660358
000230 44 d7 da 39 15 2d 72 bb 48 eb 98 bb 92 1b ff ba
       0.00041740586 -0.003695314 -0.0046667196 -0.0019463173
000240 7d 9f 5a 3b a0 ec 14 ba bb 47 ab 3b a9 9f 9c ba
       0.0033359223 -0.0005681012 0.005227057 -0.0011949438
000250 98 02 24 ba 38 54 29 3b 34 b5 78 3b 32 b2 ea bb
       -0.000625649 0.0025837552 0.0037949802 -0.007162356
000260 90 4e a3 3a 70 20 e9 b9 4c 11 d7 3a 3f ae dc 3b
       0.0012459327 -0.0004446539 0.0016408353 0.006734639
000270 83 d5 20 bb 9e 66 1c 3b f9 d7 ec 3a 42 39 18 bb
       -0.0024541325 0.0023864876 0.0018069736 -0.0023227488
000280 ac 20 c7 ba 7a da 35 bb 4c 98 a9 bb a6 2e f7 ba
       -0.0015192232 -0.002774863 -0.005175626 -0.0018858507
000290 b8 3a 2f bb 48 28 96 3a 80 b9 98 bb 71 e1 99 bb
       -0.002673788 0.0011456097 -0.004660785 -0.004696064
0002a0 98 1a c6 39 06 5d c5 ba c4 fb a4 3b 64 4c c4 ba
       0.00037785317 -0.001505763 0.0050348956 -0.001497638
0002b0 92 0c 43 3b 39 08 44 bb c0 91 e1 b8 1e 73 9b 3b
       0.002976213 -0.0029912128 -0.00010755984 0.0047439476
0002c0 a7 fd ea 3a 1e b4 10 3b 88 55 86 3b b0 5e 4e 3b
       0.0017928377 0.0022080014 0.0040995516 0.0031489544
0002d0 77 6e a4 bb 5c a3 fe ba 3e 60 34 bb 00 9c 53 b7
       -0.0050180512 -0.0019427347 -0.0027523185 -1.2612902e-05
0002e0 60 10 6b 39 6c a1 8f 3a 28 e0 46 bb c4 1e 13 bb
       0.00022417447 0.0010958142 -0.003034601 -0.0022448758
0002f0 28 cd b7 3a b8 a8 f1 ba 06 3d 82 bb 35 e1 60 bb
       0.0014022933 -0.0018437123 -0.0039745597 -0.0034313921
000300 a0 dd 96 39 c8 6c 0a ba 72 45 51 bb 00 e3 13 39
       0.00028775353 -0.0005280492 -0.0031932262 0.00014103577
000310 d4 84 6a 3b 83 cd 14 bb 50 92 7a 3a a0 35 91 3a
       0.0035784738 -0.0022705502 0.00095585454 0.0011078604
000320 b8 f8 34 3a 80 b8 d8 b7 78 4b d6 b9 fa 24 97 bb
       0.0006903517 -2.5835121e-05 -0.0004087349 -0.0046125622
000330 20 5e af ba 14 10 8a 3a 97 d5 12 3b 40 3f 1d ba
       -0.0013379492 0.0010533356 0.0022405141 -0.00059984997
000340 bd 76 04 bb 66 5d 27 3b c4 da c1 ba d8 5d af 39
       -0.0020212375 0.0025537848 -0.0014789929 0.0003344852
000350 40 2e 55 b9 3c 2f 29 bb 58 87 ee bb 70 82 27 3a
       -0.00020330492 -0.0025815507 -0.007279318 0.0006389981
000360 13 f4 19 bb 30 f5 d4 b9 c7 eb a0 3b 88 70 80 ba
       -0.0023491427 -0.0004061847 0.0049109193 -0.0009799162
000370 94 2b 60 3a be d6 e5 3b 19 43 95 3b a0 7c 36 ba
       0.00085514155 0.0070141247 0.004555118 -0.00069613196
000380 27 1f ac bb 2c 8f 72 3b f0 9f 4f ba 20 00 62 b9
       -0.005252737 0.0037011607 -0.0007920256 -0.00021553086
000390 c0 c8 30 3a 6e b6 ab bb c4 c6 36 3b e4 27 8b bb
       0.0006743781 -0.005240253 0.002788947 -0.0042466987
0003a0 18 60 64 3a 82 53 a0 3b 38 7d 98 bb a0 e3 d1 3a
       0.0008711829 0.0048927674 -0.004653599 0.0016013272
0003b0 e0 06 53 39 30 b7 73 39 80 ed 37 bb 80 72 a7 38
       0.00020125089 0.00023242529 -0.0028065145 7.984508e-05
0003c0 17 20 52 3b 14 02 2c bb 75 56 88 3b 48 d1 44 ba
       0.0032062584 -0.0026246356 0.004160697 -0.0007507992
0003d0 40 38 cb 3a 5e fd 85 bb e4 66 a9 3b b4 ef bc 3b
       0.0015504435 -0.0040890416 0.005169736 0.0057658795
0003e0 dc 37 45 3b 40 cb 75 ba 28 f1 55 bb c8 95 52 3b
       0.003009311 -0.0009376295 -0.003264496 0.0032132734
0003f0 20 ea 2f b9 00 60 90 37 e6 4d 3f bb 41 ba 12 bc
       -0.00016776519 1.7210841e-05 -0.0029190718 -0.008955539

network.1.running_var f4 [256]
000000 4a af 61 3e 7f 60 2c 3e e0 cc 5b 3e 73 d6 8a 3e
       0.22039524 0.16833685 0.21464872 0.27116737
000010 a2 93 0a 3e cb f9 6a 3e 7b 11 a8 3e 4a df 9b 3e
       0.1353288 0.22946851 0.32825837 0.30443794
000020 73 db 8f 3e ee 59 47 3e c3 77 29 3e df ee 92 3e
       0.28097114 0.19467899 0.16549592 0.2869787
000030 36 c3 d4 3e 8d 4f af 3e 06 24 5a 3e f5 08 40 3e
       0.41555184 0.3424038 0.21302804 0.18753417
000040 60 60 60 3e 56 20 85 3e 73 a5 9a 3e 4c b2 31 3e
       0.21911764 0.26001233 0.30204353 0.17353171
000050 25 6b 86 3e ec d2 3a 3e 9f 46 cc 3d 77 58 60 3e
       0.2625362 0.18244523 0.099744074 0.21908747
000060 ad 37 89 3e 93 cf a3 3e 70 92 9e 3e 03 33 43 3e
       0.2680029 0.31994304 0.30971098 0.19062428
000070 fe 02 21 3e 13 78 72 3e 2b a9 84 3e 23 ad 2c 3e
       0.15723798 0.23678617 0.25910315 0.16862921
000080 ff 4a a6 3e 9e f6 69 3e 15 6a 25 3e 1b f1 74 3e
       0.32479092 0.22847983 0.16153748 0.239201
000090 06 57 38 3e 99 af 42 3e 24 8a 9f 3d 10 d0 82 3e
       0.18001947 0.19012298 0.0779002 0.25549364
0000a0 eb 9c 08 3e df ad 83 3e e0 54 27 3e d6 18 29 3e
       0.1334111 0.2571859 0.16340971 0.1651338
0000b0 14 e4 21 3e e1 a3 15 3e e7 ed ac 3e 71 ac 93 3e
       0.15809661 0.14613296 0.33775255 0.288425
0000c0 7f 74 99 3e d1 d0 84 3e 47 71 41 3e 4d 66 6a 3e
       0.29971692 0.25940564 0.18890868 0.22890587
0000d0 b4 a5 58 3e e6 19 9c 3e 63 b5 0d 3f e5 57 86 3e
       0.2115696 0.3048851 0.553549 0.26238933
0000e0 1e db b0 3e bd fe 4a 3e d9 a0 82 3e 61 df 54 3e
       0.34542173 0.19823737 0.25513342 0.20788337
0000f0 1e 75 46 3e bd ef 19 3e e4 5c 9a 3e a2 f9 9e 3e
       0.19380614 0.15032859 0.30148995 0.3104983
000100 61 79 82 3e 33 82 e2 3d cd 1b 2d 3e c1 42 46 3e
       0.2548323 0.1105999 0.16905136 0.19361402
000110 75 fd 85 3e 60 2e 4a 3e 30 b0 7d 3e 58 4b 6b 3e
       0.26169935 0.19744253 0.24774241 0.2297796
000120 69 12 68 3e f5 96 37 3e e3 0c 8a 3e 69 f5 35 3e
       0.22663273 0.1792868 0.26962957 0.17769398
000130 67 cf 32 3e 35 47 8f 3e 70 64 3a 3e 9f ea 43 3e
       0.1746193 0.27984014 0.18202376 0.1913247
000140 e1 3c 84 3e e0 06 c2 3e 3c 92 9e 3e a4 d6 78 3e
       0.25827697 0.3789587 0.30970943 0.24300629
000150 50 2c 52 3e 8d 9f 6b 3e cb fa d0 3d 0d cf 6b 3e
       0.20524716 0.23010083 0.10204085 0.23028202
000160 c0 69 c0 3e 26 ea 2d 3e 2f e8 3f 3e 29 fc 93 3e
       0.3758068 0.16983852 0.18740915 0.2890332
000170 4b ec 5e 3e 10 02 b6 3e 87 c3 44 3e 0d ac 6e 3e
       0.21769826 0.3554845 0.19215213 0.2330782
000180 96 17 3a 3e 91 37 b2 3e b6 0f 3b 3e 43 9b 8f 3e
       0.1817306 0.3480802 0.18267712 0.28048143
000190 b6 d8 26 3e f3 0e 35 3e 8f ee 9c 3e 8a f5 9d 3e
       0.16293606 0.17681484 0.30650756 0.30851394
0001a0 5d a3 a6 3e e8 b8 9e 3e 20 f0 a8 3e 00 41 9d 3e
       0.3254651 0.31000447 0.329957 0.30713654
0001b0 13 e6 65 3e 3e 47 db 3e 34 f6 25 3e ed 71 7f 3e
       0.22451048 0.4282779 0.162072 0.24945803
0001c0 12 8c 4e 3e f2 c9 5f 3e 0e 55 8e 3e d4 66 63 3e
       0.2017062 0.2185438 0.27799267 0.22207195
0001d0 d4 51 3a 3e 75 39 4e 3e 5b f5 63 3e e9 f1 ba 3e
       0.18195277 0.20139106 0.22261564 0.36512688
0001e0 19 e9 2b 3e 41 53 66 3e a5 0c 04 3e cf e0 48 3e
       0.16788138 0.22492696 0.12895449 0.19617008
0001f0 75 81 d1 3e dd b9 63 3e f7 02 67 3e 5d c9 5e 3e
       0.4091908 0.2223887 0.22559725 0.21756501
000200 d7 c2 9a 3e 09 3a 86 3e 3d c9 6c 3e 9a c3 28 3e
       0.30226776 0.26216152 0.23123641 0.16480866
000210 0b 28 24 3e 7f 6c b9 3e 48 1f 8a 3e d7 02 53 3e
       0.160309 0.36215588 0.2697699 0.20606552
000220 0c 3a 07 3e 3b ef 31 3e 43 93 64 3e c8 e3 25 3e
       0.13205737 0.17376415 0.22321801 0.16200173
000230 5e 66 3a 3e 18 61 83 3e 73 14 04 3f bf da 8f 3e
       0.18203112 0.25660014 0.51593703 0.28096578
000240 1c 54 57 3e f2 17 8f 3e f3 42 84 3e 80 6c 57 3e
       0.21028179 0.27947956 0.25832328 0.21037483
000250 bb 1f a5 3e 45 27 bd 3e a6 07 99 3e 84 31 8b 3e
       0.3225077 0.36944023 0.29888648 0.27186215
000260 d5 d3 79 3e 1b 26 28 3e 53 3b 08 3e a1 06 8f 3e
       0.24397214 0.16420786 0.1330388 0.27934745
000270 c0 91 79 3e 75 6c 87 3e 02 c5 2c 3e 0f 45 60 3e
       0.24372005 0.26449934 0.16872028 0.21901344
000280 a5 27 30 3e e1 af 75 3e 7a 0e 83 3e 97 59 35 3e
       0.17202623 0.23992874 0.25596982 0.17709957
000290 1e 12 7d 3e 8e e2 e2 3d 36 4b 59 3e ac 05 43 3e
       0.24713942 0.11078368 0.21220097 0.19045132
0002a0 0b 6b 83 3e b5 fa 46 3e a0 b3 9d 3e fe 5e 57 3e
       0.25667605 0.19431575 0.30801105 0.2103233
0002b0 91 9d ad 3e d2 2a 6e 3e 6a bd 1f 3e 7a 3b 99 3e
       0.33909276 0.23258522 0.155996 0.2992819
0002c0 72 57 2f 3e e8 91 3f 3e 45 9a 81 3e 77 49 8a 3e
       0.17123201 0.18708003 0.2531301 0.27009174
0002d0 5d fa 94 3e 23 ef 95 3e 18 46 4c 3e 05 2e 66 3e
       0.29097262 0.2928401 0.19948614 0.22478493
0002e0 79 16 0f 3e ff 25 60 3e ea 01 90 3e 4a 13 02 3e
       0.13973416 0.21889494 0.2812646 0.1270267
0002f0 ae db 88 3e 87 64 81 3e 2d 83 04 3f 78 1f ed 3d
       0.26730102 0.2527201 0.5176266 0.11578268
000300 cd ae 56 3e 64 51 3b 3e a5 92 0f 3e f9 6c 93 3e
       0.20965119 0.18292767 0.14020784 0.28794077
000310 cb 8f 90 3e 4b 41 83 3e a3 75 6e 3e 00 e4 36 3e
       0.28234705 0.25635752 0.23287062 0.17860413
000320 b5 3b a3 3e 8a 01 43 3e ea 39 7c 3e 3e 3a 9e 3e
       0.3188149 0.19043556 0.24631467 0.3090381
000330 02 c0 17 3e 4b 57 b0 3e a5 0b 3a 3e 71 58 46 3e
       0.14819339 0.344416 0.18168505 0.19369675
000340 1d 4e 88 3e 61 c4 e6 3d ae 13 4a 3e f1 1f 94 3e
       0.26622096 0.11267925 0.1973407 0.2893062
000350 28 c5 97 3e 4f 61 71 3e e6 6d c5 3e c9 51 6c 3e
       0.29642606 0.23572277 0.38560408 0.23078074
000360 7e e6 69 3e c7 a6 9a 3e a0 90 72 3e 55 13 05 3e
       0.22841832 0.30205366 0.23687983 0.12995656
000370 d3 00 23 3e 72 f9 85 3e 37 f5 96 3e 2b 0f 6c 3e
       0.15918283 0.26166874 0.2948396 0.23052661
000380 3f 95 6a 3e 88 dd 0b 3e 24 22 19 3e bc 0d 80 3e
       0.22908495 0.13658726 0.1495443 0.25010478
000390 0e 6b 8c 3e 6f 60 8f 3e 76 72 84 3e 5f 70 74 3e
       0.27425426 0.2800326 0.25868577 0.23870991
0003a0 a4 42 85 3e 30 f6 93 3e 00 83 45 3e 18 8e 87 3e
       0.26027405 0.28898764 0.19288254 0.26475596
0003b0 39 e8 4d 3e ca e1 97 3e 3f 5f fe 3d c7 8d 87 3e
       0.20108117 0.2966445 0.124205105 0.26475355
0003c0 b7 3d 16 3e ac 4b 2c 3e af 8b 22 3e bd a5 4d 3e
       0.1467198 0.16825742 0.15873598 0.20082755
0003d0 54 38 36 3e 80 bb 95 3e a8 1b 09 3e 4e 91 6d 3e
       0.17794925 0.29244614 0.13389456 0.2319996
0003e0 9f 5b 69 3e 80 ba 49 3e 69 45 a3 3e 72 d2 8c 3e
       0.22788857 0.1970005 0.31888893 0.27504307
0003f0 29 81 63 3e f6 27 47 3e dd 8d 50 3e 38 c5 bc 3e
       0.2221724 0.19448838 0.20366617 0.36869216

network.4.weight f4 [128, 256]
000000 d1 02 d8 bd c8 d5 1f 3d 4a c3 f0 bd b1 a2 bd 3c
       -0.10547412 0.039022237 -0.117559984 0.023148866
000010 9a f9 c7 bb 41 fe c1 bd f4 2a 3d 3d 1e c3 a8 bd
       -0.006102753 -0.09472323 0.04618354 -0.08240341
000020 b6 ed bd bd a0 92 0b 3e 64 0a ea bc 3b 08 a8 bd
       -0.092738554 0.13630152 -0.028569408 -0.08204695
000030 b7 48 a5 bd 75 2a 04 3d b8 18 5e bd 13 7b 01 3e
       -0.0807051 0.032267053 -0.054222792 0.12644605
000040 a4 20 4b 3d ca c1 b5 bd 35 dd 6e 3d 36 b2 d5 bd
       0.049591675 -0.08874853 0.05831643 -0.10434382
000050 be 67 8e 3d c5 fa 00 3d 0d 30 cd 3d 0d 0b c7 3b
       0.06953381 0.031489152 0.100189306 0.0060743154
000060 6c 86 e4 bd ed 13 5c bd ce d2 ad 3c 25 89 7a bd
       -0.111584514 -0.05372994 0.021218684 -0.061165947
000070 dc 74 d9 3c 7e 7e b9 3d 5b ad 36 bd e8 8c 00 3e
       0.02654498 0.090573296 -0.04459892 0.12553751
000080 37 a0 0c bc 21 16 e0 3d b1 b0 d6 bd b3 e2 cc bd
       -0.00858312 0.10941721 -0.1048292 -0.10004177
000090 34 65 7d 3d 75 92 8e bd 70 6a 95 3c 92 2a 94 bd
       0.061864093 -0.06961528 0.01823923 -0.07234682
0000a0 8d 8a 94 bb d2 5a d2 bb f1 6f 80 3b 23 ac b3 3d
       -0.004533118 -0.006419518 0.0039195945 0.08773067
0000b0 c9 d4 80 3d 81 0b a7 bc cf 85 9b bc e0 9b ce bd
       0.062905855 -0.020391228 -0.018984703 -0.100883245
0000c0 5e fe a8 3d 32 d3 7e bd 3a d7 c3 bd ab 63 55 3d
       0.08251642 -0.06221313 -0.095625356 0.052097004
0000d0 d9 0b 96 bd a3 74 5d bd 2c b5 48 3d b3 74 da bd
       -0.073264785 -0.05406631 0.049000904 -0.1066679
0000e0 f9 67 b4 bc d9 9f 56 bb b6 f4 d3 3c 9c 08 67 3d
       -0.022022234 -0.0032749085 0.025873523 0.056404695
0000f0 ba 9a 8c bd 53 1d e2 3d 2f 3a 96 3c 04 08 51 bd
       -0.06865449 0.110407494 0.018338291 -0.051033035
000100 d6 cf c3 3d ae 15 ff 3d fd 62 9f bc 17 54 c3 3c
       0.09561126 0.12455307 -0.019456381 0.023843808
000110 c8 18 33 bc aa b7 8e 3d 75 88 cb 3d 8b 35 f3 bc
       -0.010931201 0.06968625 0.099381365 -0.029688617
000120 aa 64 c3 3d b5 12 74 3c cf 26 67 3b 78 79 36 bc
       0.095406845 0.014897038 0.0035270934 -0.011137359
000130 d6 a8 8f bd 17 9a 04 bd 32 6f be 3d 52 99 6b bd
       -0.07014625 -0.032373514 0.092985526 -0.057519265
000140 c5 d5 0a 3d 89 45 bd 3d bd 26 b8 bb 16 63 e7 3c
       0.033895273 0.092417784 -0.0056198523 0.02824549
000150 10 a6 71 3c 62 a1 89 3d 6c 38 d1 bd 70 fa 8d 3d
       0.014749065 0.067202345 -0.1021584 0.06932533
000160 cd fd 03 be a1 00 33 3c cb 90 ae 3d aa 1d 62 3d
       -0.12889786 0.010925443 0.08523711 0.05520407
000170 2a dc 98 bd c9 bf 9a bc 08 2c bd bd 91 bb ec bc
       -0.07463868 -0.018890278 -0.09236914 -0.028898032
000180 47 65 8a 3d e5 2f e6 3d 64 1a 04 3d 3c 37 dd 3d
       0.06757598 0.11239604 0.03225173 0.10801551
000190 60 fc 21 3d 8a 37 13 3d b4 88 e2 3d 99 a0 0e bb
       0.039547324 0.035941638 0.1106123 -0.0021763204
0001a0 26 73 dd bd 6b ae 2d bd e3 53 81 3d 6b 1c 62 3d
       -0.108129784 -0.042402666 0.06314828 0.055202883
0001b0 e3 e1 e9 3d 76 73 34 bc ca 70 85 3d 8d 16 8f bd
       0.114200376 -0.011013856 0.065156534 -0.06986723
0001c0 8a b6 bd bb 82 2f cb bc 98 ab b5 3d 43 87 32 bb
       -0.0057895826 -0.024802927 0.088706195 -0.0027241267
0001d0 16 52 dc bd c5 51 ef bd a6 06 9a bc ae 4d de bd
       -0.10757844 -0.11685518 -0.018801998 -0.1085466
0001e0 9b 00 8c 3d c4 f1 7b 3d 8c 95 ac bc d7 f0 71 3d
       0.06836053 0.061509863 -0.021067403 0.059067573
0001f0 67 4d e3 3d 96 c0 cf 3d 4e e2 44 bc 07 a6 2b 3d
       0.11098748 0.10144155 -0.012016846 0.041906383
000200 cf 03 5f bd e1 ce a2 3d 7c ad e5 3d af 8a dc 3c
       -0.05444699 0.07949615 0.1121473 0.026921598
000210 a1 53 f1 bd ae 4f 17 bd d7 1a f1 3c fc 7c d2 3d
       -0.11783529 -0.036941223 0.029431744 0.10277745
000220 d6 dd cd 3d 19 a3 0c be 95 45 d3 3d 5b 30 ec bd
       0.100520775 -0.13734092 0.10316006 -0.115326606
000230 2f c9 f9 bd fa d3 08 be e2 02 c5 3c b5 38 ae bd
       -0.12196576 -0.13362113 0.024049226 -0.0850691
000240 60 b4 fa 3c 1a 3f 1e bd eb 44 02 bd 40 53 6c 3d
       0.030603588 -0.038634397 -0.031804007 0.05769658
000250 0b c2 c3 3d 13 5a 10 3c 1b 23 88 3d f2 82 13 bd
       0.09558495 0.008810538 0.06647321 -0.03601355
000260 15 8d da 3d 0b 82 8d 3d 11 ae dd 3d 21 90 c3 bd
       0.106714405 0.06909569 0.10824216 -0.09548975
000270 f4 5e f6 bd 74 3b b7 bd da 60 8e bd 69 51 9b bd
       -0.120298296 -0.08946887 -0.06952067 -0.07583887
000280 0c 0e a4 bd 11 7e 8b 3c 0f 49 c9 bc 40 3b 03 3e
       -0.08010492 0.017027887 -0.02457097 0.12815571
000290 ff 32 23 3d 54 0e 00 bd 4b 78 f9 3d 08 d3 50 bd
       0.039843556 -0.031263664 0.12181147 -0.050982505
0002a0 e8 cc 89 3d 95 ff 2c 3d cc 6f ee 3d 37 51 3e 3d
       0.06728536 0.04223593 0.11642417 0.04646417
0002b0 da 38 5d ba 7b c0 e1 3d f9 d9 28 bd ec 21 d5 3d
       -0.00084389525 0.11023041 -0.0412235 0.10406861
0002c0 58 14 f8 bd d1 13 ec bc 53 f3 a8 3d ef d9 de 3d
       -0.12113255 -0.028818043 0.082495354 0.10881411
0002d0 59 ea 0f be 6e 67 7d 3d 37 ea ca bd 68 31 eb 3d
       -0.1405424 0.061866216 -0.09907954 0.11484033
0002e0 74 48 9d 3d db 2f 43 3c e6 71 87 bc dc 25 be bc
       0.07679835 0.011913265 -0.016533803 -0.023211412
0002f0 5e f4 81 bd 76 48 bc 3d f9 2a de 3c 0c 7e 37 bd
       -0.063454375 0.09193508 0.0271201 -0.044797942
000300 44 d4 96 3d 0d 8d 2e bd 89 34 08 3a 03 3a e9 3d
       0.07364705 -0.042614985 0.00051958166 0.11388018
000310 d3 ed 3d 3d e0 1e 88 bd 28 2b 0f bd df f4 2f bc
       0.046369385 -0.06646514 -0.034953266 -0.010739534
000320 30 71 61 bd a4 f3 80 bd 58 7c d9 3d 34 6d b9 bd
       -0.055039585 -0.06296471 0.1061942 -0.09054032
000330 af 88 a5 3d df 14 57 3d 1d 37 45 bd 66 cd 3b bd
       0.08082711 0.05251014 -0.048148263 -0.04585018
000340 b2 ca ac bd 7a 36 d3 3c 1d db a4 bd 5a 88 1b 3c
       -0.084370986 0.025782812 -0.08049605 0.009492958
000350 53 81 b4 bd d6 10 92 bd c6 de 7a 3d 1e 24 14 bd
       -0.08813729 -0.071321175 0.06124761 -0.036167257
000360 d3 9d db bd bc 18 e7 bd 2a a2 9b bd 39 20 e6 3b
       -0.10723462 -0.112840146 -0.0759929 0.007022884
000370 d6 df 21 3b 76 3f ff 3d 65 0b 25 3d ae ee b0 bd
       0.0024700067 0.12463276 0.04029407 -0.086392745
000380 a9 f3 8d 3d 13 9b 84 3b b3 c9 c9 bd c5 14 44 bd
       0.0693124 0.0040468066 -0.09852924 -0.04787137
000390 2b b2 19 bd 33 76 11 bd 23 4f 39 bb 6c 93 e2 3d
       -0.03752343 -0.035513114 -0.002827593 0.11063275
0003a0 06 4f 33 bd 63 39 c4 3d 33 c0 d6 3d 79 3c 60 bc
       -0.043776534 0.09581258 0.10485878 -0.013686293
0003b0 b1 81 c8 bd 9c df b5 bd 7d 0f 0b bc 58 c7 f8 3d
       -0.09790362 -0.08880541 -0.008487579 0.12147397
0003c0 f4 ab 7a 3c 9c 48 33 3c e6 59 c3 bd a5 4d ad bd
       0.015299786 0.010942604 -0.09538631 -0.08462075
0003d0 04 66 f7 bd 56 c5 b8 3c e3 3c c0 3d 4a 71 a8 3c
       -0.12080005 0.022555035 0.09386613 0.020561833
0003e0 61 b1 e7 bd f0 5a 33 bd 96 79 dd 3d b9 5d f6 bd
       -0.11313129 -0.043787897 0.10814206 -0.12029595
0003f0 37 0b b0 3d 26 cd d5 bd 5b d1 d8 bd 64 87 46 3c
       0.08595889 -0.104395196 -0.105868064 0.012117241
